selfstudy/data/conv.pt (torch, 350427 bytes, 5 tensors)

weight f4 [15, 1, 5, 5]
00000000: 8e14 113d 4303 2cbe 7431 02be 58fe 3abe
00000010: 3139 35be 3f51 0e3e 5482 a8bd 4b23 44bc
00000020: 25ca 93be e7a7 6abd cd91 2abe 5ea4 a8bc
00000030: 579e 123e 10e4 16be bd1e 253e b46b 023e
00000040: 80b8 833e 4c19 793e a853 8c3e 1e0c b33d
00000050: 7306 893d c15f 123d 4d51 4e3e b377 723e
00000060: 79ca 753c d781 323e b5cf 623d 6de4 193e
00000070: 374a 3a3e 2df6 aebd 35ab d7bd 0d73 d23d
00000080: f862 153e 6917 57bd fd86 59be 60fb c53d
00000090: 232e 803e 9d0a 2bbd 8da4 333d c8ed 64be
000000a0: 8865 4e3e c8de c4bd 7c1f 623d 795f 26be
000000b0: ec5c 19be c98f 133e 079c 9d3c dd94 213e
000000c0: d606 81be 8ca9 2cbc ac79 5dbe 53c7 2bbe
000000d0: 69ff 81bd c982 933d 010d efbd 119e bbbd
000000e0: d47f c6bd 2021 95bd af42 08be 2030 773d
000000f0: 271b 143b 5451 15bd 7b43 1ebe 593d d13d
00000100: 7f70 51be 1653 e5bb 56c2 3bbe 6222 58be
00000110: da62 5bbe 554f 28be baae 423e e0d6 213e
00000120: 2fcd 2dbe 0f00 32bd 46f0 8b3d 1506 5b3e
00000130: 5224 ad3d eca1 f2bd b0a5 90bd 17b1 1abe
00000140: f465 893b 29de 0e3e 31fa 7a3e aa3a da3c
00000150: 0e7e 063d f5c7 4b3d a503 403e b265 483e
00000160: 2e11 113e 1fe0 813c f856 583e 8aa0 0f3e
00000170: fd9e 8fbd 2d73 e13d 968b b53d 09b1 4c3e
00000180: 15e5 03be 7f47 f63d 779a 313d 7100 2b3c
00000190: de3c 16be 088d 7cbd 3d62 a8bd c171 bfbc
000001a0: f895 d43d b76b 81be 4cc5 da3d b058 07be
000001b0: abbe 983d 7bd0 143e 975d 72be 7629 503d
000001c0: 7576 7c3c 328f 673e fd4b 483e dca7 823b
000001d0: 3ab4 3bbd 6ede 3f3e b93a 7d3e afb5 19be
000001e0: 67e1 8e3b 0f34 803e 647c f73d 1abe 09be
000001f0: 9865 1fbe 1f5b a5bd cbed 37be bda1 08be
00000200: f445 fabc 442a 12be a1f1 223b 36da a03d
00000210: 1aaa b6bd f750 38be 14fb 2f3b fbbe 093e
00000220: 7df9 debc 2aa8 3d3e 9564 273e c9e0 a6bd
00000230: 77f6 b33c e4f0 7fbc 9130 28be 7a20 acbd
00000240: 2db6 703e fe05 f83c 83e7 5bbe f8e2 38bc
00000250: 54a3 d1bd d723 893e ad3a 53be e949 263e
00000260: 1854 6d3e 9efe 08be 5f18 973c 8d42 0dbd
00000270: 06e6 bd3d a4f5 443e d203 333e 3769 cd3d
00000280: fb39 43bc 85d5 3e3e 83b8 23bc a5f9 4e3e
00000290: 4e99 b93d 5838 88bd 1120 32be dd7c fa3b
000002a0: d1cf 8cbd 8277 4d3c b49c 68be 726a 273c
000002b0: 9852 46be 7b2d e53a 991f 03be 5c51 92bd
000002c0: a9ab 1e3d d7c6 f73d 7f72 08be e446 593e
000002d0: 189b abbd 7425 08be 0c21 063e 22cb 79bd
000002e0: 162f d8bd 0ef2 27be c896 5dbe 790f 3e3e
000002f0: 9b01 653e 94ea 483d 855f 4bbc 5726 45be
00000300: e2e2 553e bbf8 e93b 7ba6 3e3e 808c 00bd
00000310: 952d 003e ac99 eabd 746b 2b3d edfe 3cbd
00000320: c917 433e bc10 de3c d3b0 0bbd 2dd5 44bd
00000330: b25d fab9 e586 b2bd 245a 29be 6cfb 8d3d
00000340: ff9e 2a3e 1efe e83d 99ba 9f39 9689 69bd
00000350: 6ac5 03be 8920 5d3e 1959 843e 27a5 503e
00000360: 4f88 cc3c 03f9 49be 5700 18be 77c1 e0bd
00000370: eb30 a6bd 5713 8bbd 8984 733d da84 18be
00000380: 22ee 43be e468 cb3d 2b6e 2fbd 0c11 303e
00000390: 6742 dbbd bac0 f33d 1ed1 5f3e 2370 23be
000003a0: 6ee9 183e 6fda 8abd de4a 36be 8788 03be
000003b0: 0a27 5ebd d893 3ebe 6d7a c3bd a74e 05be
000003c0: 022e c93d 536f 4d3c 667c 3cbe f5f0 3cbe
000003d0: e68f fd3d 8072 7abe 7b0d ccbd 02d9 113d
000003e0: 1456 27be d873 1cbe 3f2e 00be d25a 893b
000003f0: 28e2 42be bfcc 63bc 401d bf3d f556 4ebe
0.035419993 -0.16798119 -0.12714177 -0.18261087 -0.17697598 0.1389818 -0.08227983 -0.011971305
-0.28865162 -0.05728903 -0.16657181 -0.020586189 0.14318214 -0.14735436 0.16125007 0.12736398
0.257267 0.24326056 0.27407575 0.087425455 0.06690683 0.03573585 0.20148201 0.23678474
0.0150018865 0.17432342 0.055373866 0.15028544 0.18192373 -0.08543048 -0.10530702 0.102758504
0.14588535 -0.05251256 -0.212429 0.096670866 0.250352 -0.04175817 0.0438581 -0.22356331
0.20155919 -0.09612805 0.055205807 -0.16247357 -0.14976853 0.14410318 0.019239439 0.15779443
-0.25200528 -0.01053847 -0.21628445 -0.16775255 -0.06347544 0.0720268 -0.11672402 -0.09161008
-0.0969235 -0.07281709 -0.13306688 0.06034863 0.0022599192 -0.036454514 -0.1545543 0.10216779
-0.2045307 -0.00699843 -0.18335852 -0.21106866 -0.21424428 -0.16436513 0.19011965 0.15804625
-0.16972803 -0.043457087 0.06832938 0.21389039 0.08454193 -0.118472904 -0.070628524 -0.15106617
0.004193062 0.13951935 0.24509503 0.026639301 0.03283506 0.04975124 0.1875139 0.19570044
0.1416671 0.01585394 0.21126926 0.14026085 -0.070127465 0.11008296 0.088645145 0.19989409
-0.12880357 0.120253555 0.0433602 0.010437117 -0.14671656 -0.061657935 -0.082218625 -0.023369672
0.10380167 -0.25277492 0.10682163 -0.13217425 0.07458242 0.14532654 -0.23668514 0.05082079
0.015409102 0.22613218 0.19560237 0.0039872956 -0.045826174 0.18737194 0.24729432 -0.15010713
0.004360366 0.25039718 0.120842725 -0.13451424 -0.15566099 -0.080740206 -0.17961805 -0.13342948
-0.030550934 -0.14273936 0.002486326 0.078541204 -0.08919163 -0.17999636 0.0026852535 0.1345176
-0.027218575 0.18521181 0.16346963 -0.08148343 0.02196811 -0.015621398 -0.16424777 -0.08404632
0.23506995 0.030276295 -0.21475033 -0.011284582 -0.102362305 0.26785156 -0.20627852 0.16239132
0.2317661 -0.13378379 0.018444238 -0.034487296 0.09272389 0.1923433 0.17481926 0.10029834
-0.011915679 0.18636139 -0.0099927215 0.2021242 0.09062444 -0.06651372 -0.17395045 0.0076442794
-0.06875575 0.0125407 -0.22716027 0.01021825 -0.19367445 0.0017484868 -0.12805022 -0.07144424
0.038737927 0.120984726 -0.13324927 0.21218449 -0.08379191 -0.13295537 0.13098544 -0.06098474
-0.10555856 -0.1640093 -0.2163955 0.1856059 0.22363894 0.049051836 -0.01241291 -0.19252907
0.2088733 0.0071402467 0.18618195 -0.03138399 0.12517388 -0.11455092 0.041850522 -0.046141554
0.19052042 0.027107589 -0.03410418 -0.048054863 -0.00047753524 -0.08717135 -0.16538292 0.069327205
0.16662215 0.11376594 0.0003046587 -0.057015978 -0.12868276 0.21594442 0.25849226 0.203755
0.02496734 -0.19723897 -0.1484388 -0.109744005 -0.08114799 -0.06790798 0.059452567 -0.14894429
-0.19133809 0.09932116 -0.042829674 0.17194003 -0.107060246 0.11901994 0.21857116 -0.15960746
0.14932796 -0.06779944 -0.17801997 -0.1284505 -0.05423645 -0.18611085 -0.09544835 -0.13018285
0.098232284 0.012538749 -0.18406829 -0.18451293 0.12380962 -0.24457741 -0.09963509 0.035607345
-0.1634143 -0.15278566 -0.12517641 0.004191735 -0.19031584 -0.013903796 0.09331751 -0.20150359

bias f4 [15]
00000000: 2eb9 a33d 414d 15be 3ab1 a0bc 91ff 2c3e
00000010: 3a00 d0bb 936e 33be b9f2 223e a3c5 cf3c
00000020: ef95 71bd 4a8d 7b3c 0b07 0d3e c6de 89bd
00000030: 003e 0a3e dda3 56bc 6796 b03d
0.079943046 -0.14580251 -0.019615758 0.16894366 -0.0063476833 -0.1752265 0.15912904 0.025362795
-0.05898088 0.01535351 0.13772218 -0.06731944 0.13500214 -0.0131005915 0.08622437

weight f4 [10, 8640]
00000000: 3286 5d3b 63a4 2dbc fd3e b8bb be57 ecbb
00000010: b6d2 5b3a f332 123c 38f8 833b b24e 3cbc
00000020: a136 9fba 4e73 11bc 4858 1ebc 0a00 9d3b
00000030: 6b5b 15bc bd06 3cbb fde4 18bc f311 333b
00000040: fc90 06bc 0014 90bb 654c d2bb 2add 50bc
00000050: c865 49bc e3ea a33a 1bc4 1e3c 27d3 093b
00000060: 7a72 9b3b bd80 12bc b5d2 d93b 3d52 0e3c
00000070: 6a66 fc3a 1c44 25bc 30d2 0ebc 2ca3 2dbc
00000080: b52e 9e3b ca37 1abc c737 163c c79a 473c
00000090: ebf2 b03b c4b5 5d3b 01ed 523b 2172 13b9
000000a0: 3f40 13bc 3332 3ebc 3695 39bc f6ac 1dbc
000000b0: 407a 9ebb 2ed3 a1bb 0f8e 85bb ca3b b13b
000000c0: 65e7 253c 270f fdbb 1d46 03bc 794a 32bc
000000d0: ad49 403b 727f fa3b 7b40 e5bb e2f0 25bc
000000e0: bffe bc3b 2292 f4ba 08ef ea3b 50c4 013c
000000f0: 5e64 223c 42fb d33b ad30 8d3c 4f06 923c
00000100: e60d 9f3a 5c72 633c fefc a63b 64d3 493c
00000110: c4aa 1abb 9f66 89ba bb5d 9dbb c173 7d3b
00000120: 7193 be3b dc2f 7ebb d17b 4b3b 95e0 15bc
00000130: e7ff 08bc b167 c43b ae51 32bb 8575 d2bb
00000140: 3419 6f3b 3337 f83b 3e68 1a3b 697e 593c
00000150: 7410 303c 7433 3d3c c7ff 0c3b 60ef 863c
00000160: c11d ec3b 140a 973b ee7d a33a 5eeb 613b
00000170: 6686 463c 370f 35bb a258 73b9 4617 8f3b
00000180: 2580 ab3b 3804 583b b793 39bc 3a36 fb3b
00000190: e98e ec3b 8664 6f3b e36e e8bb 00bc f03b
000001a0: 8959 313b ab6f 0b3b cc9e c8ba e7a6 463c
000001b0: cbf0 093c df22 103c fb2a 663c 9bd3 b43c
000001c0: a0cc 963c f415 073c 4fc4 aebb 1802 803b
000001d0: d6c0 8b3c 361a 0fbb 52a3 4e3b e270 8bbb
000001e0: 47fd b63b c9ab f4bb b84a 02bb daf4 fb3a
000001f0: 510f 2fbc 8b97 53bb d6fc 4ebc 3ef0 30bc
00000200: 59d7 1bbc 1933 99ba 0469 e63b b4c8 b2ba
00000210: e143 9f3b 6535 0e3c 3748 6a3c a739 fe3c
00000220: 7f99 663c cfed c63b 89f5 d33b cd3f a4bb
00000230: 0817 043a 9a1d 0a3c b290 07bc 6d62 a83b
00000240: 358d ca3b 548c e0bb f03d c33b 457a c73b
00000250: c56e 6abc 55b0 73bb 14a7 4ebb 717a b33b
00000260: 8d41 33bc be12 24bc 2dc5 023b 9a23 aaba
00000270: 0628 853c 90ce e53a 7da3 c23c c165 423c
00000280: e16a a83c 2e5c 7e3c 4e23 babb 9d13 c2bb
00000290: 9eed 3f3c d394 913c 12cc 163c d116 fa3b
000002a0: 4912 5fbb 2a8d 993b 88be e8bb e375 fa3a
000002b0: 1f9d 043b 61b3 39bc 60f9 5139 9e78 7dbc
000002c0: a10a 8e3b dc19 183b f163 2b3b 418e 32bc
000002d0: 5b74 babb 9ee6 1fbc 0dc8 f0bb ff50 a6bb
000002e0: 4aa6 8038 8480 553c abe8 843c 160d a7bb
000002f0: 32cf 6c3c 8d50 f13b e815 623c 8134 8dbb
00000300: 4d4b 2ebc 68ce b33b 0b8a 953b 9585 03ba
00000310: 5406 a3ba fdf2 37bc 9d99 8fbb d47b 0a3b
00000320: 5dc8 babb 4da3 7e3b 2d18 4bbc 295f 98bc
00000330: 01b4 32bd 8226 01bd 0b49 32bd 03a4 39bc
00000340: 6817 c63b 3bcd 223a fec6 0d3c 2b47 653c
00000350: 6fce e73a 3de8 ad3c 9ca0 3c3c 7acb f9ba
00000360: f47f 68bb b188 5dba bdde ea3a 0477 8939
00000370: 84f0 abba d077 91ba 8b1f d1bb 3029 72ba
00000380: 4a91 d63b 1217 93bb 94d0 bcbc 02f2 0bbd
00000390: b664 2abd 6f18 67bd 3fb0 0dbd 92f6 cabc
000003a0: 6d57 8fbc 482d 863a eb3b f639 d39c 093c
000003b0: f402 9e3b 918d d33b 0c98 9e3c 7bd7 4d3c
000003c0: 002e 63bb 10a1 ae3b 8286 12bc cea6 673c
000003d0: 182a c23a f598 633b 47a2 dfbb 82cc 453c
000003e0: 395d 0a3c 5644 49bb 08d0 cdbc 4b25 ebbc
000003f0: 4238 2fbd 8ab1 16bd 348b 0dbd 99c1 04bd
0.003380191 -0.010598275 -0.005622743 -0.007212608 0.00083855854 0.00892328 0.0040273927 -0.011493372
-0.0012147018 -0.008877588 -0.009664603 0.0047912644 -0.009116034 -0.002869054 -0.009331939 0.002732393
-0.008213278 -0.0043969154 -0.0064177983 -0.012748042 -0.012292333 0.0012505915 0.00969031 0.0021030398
0.0047438713 -0.008941826 0.0066474327 0.008686599 0.0019256596 -0.010087039 -0.008717105 -0.010597985
0.0048273453 -0.009412715 0.009168572 0.012182898 0.005400052 0.0033830265 0.0032184722 -0.00014061529
-0.008987485 -0.011608648 -0.011327079 -0.009623757 -0.0048363507 -0.0049385047 -0.0040757726 0.0054087387
0.01012597 -0.0077227536 -0.008012322 -0.0108820135 0.002934079 0.007644587 -0.006996212 -0.010128232
0.005767673 -0.0018659274 0.007169608 0.00792034 0.009911625 0.0064691612 0.017235124 0.017825274
0.0012134879 0.013882246 0.005096077 0.012318466 -0.002360032 -0.0010482854 -0.0048024333 0.003867373
0.005815916 -0.003878585 0.0031049142 -0.009147783 -0.008361793 0.0059938063 -0.002720933 -0.006422701
0.0036483528 0.0075749396 0.0023560668 0.013274767 0.01074611 0.011547912 0.002151476 0.016471565
0.0072056954 0.0046093557 0.0012473443 0.0034472565 0.012117004 -0.0027627477 -0.00023207304 0.004366788
0.005233782 0.00329615 -0.011326722 0.0076663764 0.0072191847 0.0036528422 -0.007093297 0.00734663
0.0027061424 0.0021276276 -0.0015306114 0.012124754 0.008419226 0.008797376 0.014048333 0.022073558
0.01840812 0.00824498 -0.0053334604 0.0039064996 0.017059725 -0.0021835691 0.0031530452 -0.0042554
0.005584392 -0.0074667674 -0.0019880962 0.0019222752 -0.010684804 -0.0032286372 -0.012633523 -0.010799466
-0.009511792 -0.0011688202 0.007031562 -0.0013640136 0.0048603867 0.008679722 0.014299444 0.03103335
0.014074682 0.0060708295 0.006468479 -0.0050124885 0.00050388323 0.008429909 -0.008274244 0.0051386864
0.006181384 -0.006852666 0.0059583113 0.0060875737 -0.014308636 -0.003718396 -0.0031532692 0.0054772426
-0.0109409215 -0.010014234 0.0019953952 -0.0012980581 0.016254436 0.0017532874 0.023759598 0.01186508
0.020558776 0.015524907 -0.005680478 -0.0059227482 0.011714367 0.01777116 0.009203928 0.0076321145
-0.0034037998 0.0046860175 -0.007102791 0.0019108619 0.0020235253 -0.011334271 0.00020024693 -0.015470652
0.004334763 0.0023208773 0.00261521 -0.010898174 -0.00569014 -0.009759573 -0.0073480667 -0.0050755735
6.1344894e-05 0.013031129 0.016224226 -0.0050979955 0.014453696 0.0073643387 0.013799168 -0.0043092375
-0.01063807 0.005487252 0.004563575 -0.00050171587 -0.0012437799 -0.0112273665 -0.004382326 0.0021130936
-0.0057001547 0.003885466 -0.012395901 -0.018600063 -0.043628696 -0.031530865 -0.04352669 -0.011330607
0.0060452707 0.00062103913 0.0086534005 0.013994019 0.0017685423 0.021228904 0.011512902 -0.0019057833
-0.0035476657 -0.00084508496 0.0017919164 0.0002621935 -0.0013117944 -0.0011098329 -0.006381934 -0.0009237705
0.0065480815 -0.004488834 -0.023048677 -0.034166344 -0.04159995 -0.056419786 -0.03459191 -0.024775777
-0.017497743 0.0010236884 0.0004696542 0.008399206 0.0048221294 0.006456085 0.019359611 0.012563582
-0.003466487 0.0053292587 -0.008943202 0.01413889 0.001481357 0.003472862 -0.006824765 0.012072684
0.008445078 -0.0030710897 -0.025123611 -0.028704306 -0.04277826 -0.03679041 -0.034556583 -0.03241119

bias f4 [10]
00000000: f18d d2bb 3e4b 683b 6871 f1bb a216 22bc
00000010: ccab 8a3b 7199 3f3c bce4 5dbb 260d 16bc
00000020: d8da 123c 1ee8 a3bb
-0.006425612 0.0035445238 -0.0073682554 -0.009893091 0.0042319056 0.011694298 -0.003385826 -0.009158408
0.008963309 -0.0050020358

out f4 [16, 10]
00000000: d3b1 3bc0 f5ff 2dc0 2ce7 0fc0 2654 b1bf
00000010: d943 0e40 046c f6bf 32b2 3fc0 3ec9 6540
00000020: 4181 2c3f 9c9d c340 bbff 32c0 5241 8a3f
00000030: e4fd 7340 4a0b 2b40 246c b7c0 40da 68c0
00000040: 64c4 08c1 8427 db40 8207 ef3f d5e1 5b40
00000050: 7cd3 8ac0 d6f5 e040 ca3d 9f3f 5c54 60be
00000060: 9c9e f5bf dd6b 07bf 5c3e 37be a0ca 9c3d
00000070: b0d2 ee3e 19be 69c0 e851 f5c0 4cf9 0641
00000080: 1481 363f 9c10 0040 cbfc 18c0 601c 493f
00000090: 73f6 06bf 32fb 13c0 7428 b83f cac6 14c0
000000a0: 6334 a7c0 803b 053f 98da 413f b150 2c40
000000b0: fa09 bbbf 5636 893f f51e aac0 0d9c 5dbf
000000c0: c53b 0441 d861 b8be 6371 0ec0 5a30 79c0
000000d0: 6f22 3abf c0cf 3940 a6ad 7ebf 23f9 be3f
000000e0: d7cb 70c0 5aa2 23c0 1637 dc40 864c 3540
000000f0: 81be b5c0 88f8 7f3f d691 1540 a582 2940
00000100: fd42 80bf 9872 1e40 edd3 3dc0 bb61 d4c0
00000110: 9ca0 cf40 908c 55be 3aa3 adbf dcce 47c0
00000120: a7e2 fd3e 4fcb 0141 b48c 14c0 8147 3540
00000130: 203c 8ac0 e39e d3c0 d64b 6940 57a0 d23f
00000140: 7b60 bb40 d831 d0c0 d653 a040 e5df f3bf
00000150: 0025 babc 7589 3240 d855 3041 62ab c4c0
00000160: f73e 9bc0 62e3 9ac0 3fff 0841 ea8f d7c0
00000170: 26ed 3a40 c880 26be d8ee fbbf f6e5 12bf
00000180: 1459 3a3e e18e 85c0 44b9 a83e 6172 6bbf
00000190: 110d b7bf 2f28 bac0 fc25 1a40 6c1b 9840
000001a0: 1edf 8ac0 53df c8bf 2a16 25c1 a2ce 3841
000001b0: da93 623f 1c52 6040 b6b5 49bf 0caf bfc0
000001c0: 86aa 1b40 4075 a4bf 47f3 99bf 18fe 39be
000001d0: 99be d7bf 587d 4ec0 b2de 0141 362d 2c40
000001e0: ba89 c3bf c16c 0ec1 bf38 10c0 0e35 73bf
000001f0: 4e55 0f40 16e5 2fbf f0d5 f8bf b018 0540
00000200: 7853 0f40 0a7e fd40 f816 c7bd 399d 7740
00000210: b9ec 5f41 7655 be40 e327 24c1 c6f6 b73f
00000220: de9d a4be 7422 4ac1 b13c e240 b79f 02c1
00000230: 7b1e 0540 9397 d7c0 a961 4441 0ba3 c63f
00000240: 3129 90c0 683c 0840 8bd9 3ebf 9c0f 98c0
00000250: 14e1 3940 8237 83c0 fae5 3bbf c3ee 02c0
00000260: 7fe8 9040 a2ed 4440 23d1 d0c0 efdc 56c0
00000270: 928d 15c1 a4b5 0941 20fd 2b3f 9def 6d40
-2.9327285 -2.7187474 -2.2484846 -1.3853805 2.222891 -1.9251714 -2.9952512 3.5904078
0.67384726 6.1129894 -2.7968585 1.0801184 3.8123713 2.672564 -5.7319508 -3.638321
-8.547947 6.8485737 1.8674166 3.4356587 -4.338316 7.0300093 1.2440732 -0.2190718
-1.9189029 -0.5289896 -0.17894882 0.07655835 0.46645117 -3.6522276 -7.6662483 8.4358635
0.7129071 2.0010138 -2.3904293 0.7855892 -0.527198 -2.3122067 1.4387345 -2.3246331
-5.225145 0.52043915 0.7572417 2.692425 -1.461242 1.0719707 -5.316279 -0.8656624
8.264592 -0.3601215 -2.2256706 -3.8935761 -0.7270879 2.903305 -0.99483716 1.491978
-3.7624414 -2.5567842 6.8817244 2.8327956 -5.679505 0.99988604 2.3370261 2.648599
-1.0020443 2.4757442 -2.96606 -6.63693 6.4883556 -0.20854402 -1.3565438 -3.1220007
0.49586985 8.112136 -2.3210878 2.8324893 -4.3198395 -6.6131454 3.6452537 1.6455182
5.8555274 -6.5060844 5.010234 -1.9052702 -0.022722721 2.7896397 11.020958 -6.1459208
-4.851436 -4.8402567 8.562316 -6.7363176 2.9207244 -0.16260064 -1.9682264 -0.5738214
0.18198043 -4.1736913 0.32953846 -0.91971403 -1.4300863 -5.817405 2.4085684 4.7533474
-4.339736 -1.5693153 -10.317911 11.550447 0.88506854 3.5050116 -0.78792894 -5.990118
2.432283 -1.2848282 -1.2027367 -0.18163335 -1.6855041 -3.2264004 8.116869 2.6902595
-1.5276406 -8.901551 -2.2534635 -0.9500283 2.2395816 -0.6870893 -1.9440289 2.0796318
2.2394695 7.9216356 -0.09721178 3.868971 13.995294 5.9479322 -10.259738 1.4372184
-0.32151693 -12.633411 7.0699086 -8.163993 2.0799854 -6.7372527 12.273843 1.5518507
-4.5050282 2.128687 -0.74550694 -4.7519054 2.9043627 -4.100526 -0.7339779 -2.0458229
4.528381 3.077004 -6.5255294 -3.3572347 -9.347063 8.606846 0.67183113 3.7177498
